…
gs': {'feat_dim': 512, 'num_class': 64, 'batch_size': 32, 'gamma': 1, 'alpha': 0, 'is_distill': True, 'emb_func_path': './results/CLDFD_PreTrain-miniImageNet--ravi-ResNet10-5-1-Dec-05-2024-22-43-16/checkpoints/emb_func_best.pth', 'feature_denoising': {'enable': True, 'top_k': 10}, 'pic_size': 224, 'transform_type': 'ImageNet', 'feature_dim': 512, 'ss_proj_dim': 128, 'temperature': 1, 'epoch': 60}}, 'backbone': {'name': 'ResNet10', 'kwargs': {'flatten': True}}, 'tb_scale': 1.0, 'rank': 0}
2025-01-15 14:05:57,108 [INFO] core.trainer: CLDFD(
  (emb_func): ResNet(
    (trunk): Sequential(
      (0): Conv2d(3, 64, kernel_size=(7, 7), stride=(2, 2), padding=(3, 3), bias=False)
      (1): BatchNorm2d(64, eps=1e-05, momentum=0.1, affine=True, track_running_stats=True)
      (2): ReLU()
      (3): MaxPool2d(kernel_size=3, stride=2, padding=1, dilation=1, ceil_mode=False)
      (4): SimpleBlock(
        (C1): Conv2d(64, 64, kernel_size=(3, 3), stride=(1, 1), padding=(1, 1), bias=False)
        (BN1): BatchNorm2d(64, eps=1e-05, momentum=0.1, affine=True, track_running_stats=True)
        (C2): Conv2d(64, 64, kernel_size=(3, 3), stride=(1, 1), padding=(1, 1), bias=False)
        (BN2): BatchNorm2d(64, eps=1e-05, momentum=0.1, affine=True, track_running_stats=True)
        (relu1): ReLU(inplace=True)
        (relu2): ReLU(inplace=True)
      )
      (5): SimpleBlock(
        (C1): Conv2d(64, 128, kernel_size=(3, 3), stride=(2, 2), padding=(1, 1), bias=False)
        (BN1): BatchNorm2d(128, eps=1e-05, momentum=0.1, affine=True, track_running_stats=True)
        (C2): Conv2d(128, 128, kernel_size=(3, 3), stride=(1, 1), padding=(1, 1), bias=False)
        (BN2): BatchNorm2d(128, eps=1e-05, momentum=0.1, affine=True, track_running_stats=True)
        (relu1): ReLU(inplace=True)
        (relu2): ReLU(inplace=True)
        (shortcut): Conv2d(64, 128, kernel_size=(1, 1), stride=(2, 2), bias=False)
        (BNshortcut): BatchNorm2d(128, eps=1e-05, momentum=0.1, affine=True, track_running_stats=True)
      )
      (6): SimpleBlock(
        (C1): Conv2d(128, 256, kernel_size=(3, 3), stride=(2, 2), padding=(1, 1), bias=False)
        (BN1): BatchNorm2d(256, eps=1e-05, momentum=0.1, affine=True, track_running_stats=True)
        (C2): Conv2d(256, 256, kernel_size=(3, 3), stride=(1, 1), padding=(1, 1), bias=False)
        (BN2): BatchNorm2d(256, eps=1e-05, momentum=0.1, affine=True, track_running_stats=True)
        (relu1): ReLU(inplace=True)
        (relu2): ReLU(inplace=True)
        (shortcut): Conv2d(128, 256, kernel_size=(1, 1), stride=(2, 2), bias=False)
        (BNshortcut): BatchNorm2d(256, eps=1e-05, momentum=0.1, affine=True, track_running_stats=True)
      )
      (7): SimpleBlock(
        (C1): Conv2d(256, 512, kernel_size=(3, 3), stride=(2, 2), padding=(1, 1), bias=False)
        (BN1): BatchNorm2d(512, eps=1e-05, momentum=0.1, affine=True, track_running_stats=True)
        (C2): Conv2d(512, 512, kernel_size=(3, 3), stride=(1, 1), padding=(1, 1), bias=False)
        (BN2): BatchNorm2d(512, eps=1e-05, momentum=0.1, affine=True, track_running_stats=True)
        (relu1): ReLU(inplace=True)
        (relu2): ReLU(inplace=True)
        (shortcut): Conv2d(256, 512, kernel_size=(1, 1), stride=(2, 2), bias=False)
        (BNshortcut): BatchNorm2d(512, eps=1e-05, momentum=0.1, affine=True, track_running_stats=True)
      )
      (8): AdaptiveAvgPool2d(output_size=(1, 1))
      (9): Flatten()
    )
  )
  (classifier): Linear(in_features=512, out_features=64, bias=True)
  (ce_loss_func): CrossEntropyLoss()
  (kl_loss_func): DistillKLLoss()
  (distill_layer): DistillLayer(
    (emb_func): ResNet(
      (trunk): Sequential(
        (0): Conv2d(3, 64, kernel_size=(7, 7), stride=(2, 2), padding=(3, 3), bias=False)
        (1): BatchNorm2d(64, eps=1e-05, momentum=0.1, affine=True, track_running_stats=True)
        (2): ReLU()
        (3): MaxPool2d(kernel_size=3, stride=2, padding=1, dilation=1, ceil_mode=False)
        (4): SimpleBlock(
          (C1): Conv2d(64, 64, kernel_size=(3, 3), stride=(1, 1), padding=(1, 1), bias=False)
          (BN1): BatchNorm2d(64, eps=1e-05, momentum=0.1, affine=True, track_running_stats=True)
          (C2): Conv2d(64, 64, kernel_size=(3, 3), stride=(1, 1), padding=(1, 1), bias=False)
          (BN2): BatchNorm2d(64, eps=1e-05, momentum=0.1, affine=True, track_running_stats=True)
          (relu1): ReLU(inplace=True)
          (relu2): ReLU(inplace=True)
        )
        (5): SimpleBlock(
          (C1): Conv2d(64, 128, kernel_size=(3, 3), stride=(2, 2), padding=(1, 1), bias=False)
          (BN1): BatchNorm2d(128, eps=1e-05, momentum=0.1, affine=True, track_running_stats=True)
          (C2): Conv2d(128, 128, kernel_size=(3, 3), stride=(1, 1), padding=(1, 1), bias=False)
          (BN2): BatchNorm2d(128, eps=1e-05, momentum=0.1, affine=True, track_running_stats=True)
          (relu1): ReLU(inplace=True)
          (relu2): ReLU(inplace=True)
          (shortcut): Conv2d(64, 128, kernel_size=(1, 1), stride=(2, 2), bias=False)
          (BNshortcut): BatchNorm2d(128, eps=1e-05, momentum=0.1, affine=True, track_running_stats=True)
        )
        (6): SimpleBlock(
          (C1): Conv2d(128, 256, kernel_size=(3, 3), stride=(2, 2), padding=(1, 1), bias=False)
          (BN1): BatchNorm2d(256, eps=1e-05, momentum=0.1, affine=True, track_running_stats=True)
          (C2): Conv2d(256, 256, kernel_size=(3, 3), stride=(1, 1), padding=(1, 1), bias=False)
          (BN2): BatchNorm2d(256, eps=1e-05, momentum=0.1, affine=True, track_running_stats=True)
          (relu1): ReLU(inplace=True)
          (relu2): ReLU(inplace=True)
          (shortcut): Conv2d(128, 256, kernel_size=(1, 1), stride=(2, 2), bias=False)
          (BNshortcut): BatchNorm2d(256, eps=1e-05, momentum=0.1, affine=True, track_running_stats=True)
        )
        (7): SimpleBlock(
          (C1): Conv2d(256, 512, kernel_size=(3, 3), stride=(2, 2), padding=(1, 1), bias=False)
          (BN1): BatchNorm2d(512, eps=1e-05, momentum=0.1, affine=True, track_running_stats=True)
          (C2): Conv2d(512, 512, kernel_size=(3, 3), stride=(1, 1), padding=(1, 1), bias=False)
          (BN2): BatchNorm2d(512, eps=1e-05, momentum=0.1, affine=True, track_running_stats=True)
          (relu1): ReLU(inplace=True)
          (relu2): ReLU(inplace=True)
          (shortcut): Conv2d(256, 512, kernel_size=(1, 1), stride=(2, 2), bias=False)
          (BNshortcut): BatchNorm2d(512, eps=1e-05, momentum=0.1, affine=True, track_running_stats=True)
        )
        (8): AdaptiveAvgPool2d(output_size=(1, 1))
        (9): Flatten()
      )
    )
  )
  (simclr_proj): Projector_SimCLR(
    (projector): Sequential(
      (0): Linear(in_features=512, out_features=512, bias=True)
      (1): ReLU(inplace=True)
      (2): Linear(in_features=512, out_features=128, bias=True)
    )
  )
  (simclr_criterion): NTXentLoss(
    (softmax): Softmax(dim=-1)
    (_cosine_similarity): CosineSimilarity()
    (criterion): CrossEntropyLoss()
  )
  (kd_proj0): Sequential(
    (0): Conv2d(64, 128, kernel_size=(3, 3), stride=(2, 2), padding=(1, 1))
    (1): BatchNorm2d(128, eps=1e-05, momentum=0.1, affine=True, track_running_stats=True)
    (2): ReLU(inplace=True)
  )
  (kd_proj1): Sequential(
    (0): Conv2d(128, 256, kernel_size=(3, 3), stride=(2, 2), padding=(1, 1))
    (1): BatchNorm2d(256, eps=1e-05, momentum=0.1, affine=True, track_running_stats=True)
    (2): ReLU(inplace=True)
  )
  (kd_proj2): Sequential(
    (0): Conv2d(256, 512, kernel_size=(3, 3), stride=(2, 2), padding=(1, 1))
    (1): BatchNorm2d(512, eps=1e-05, momentum=0.1, affine=True, track_running_stats=True)
    (2): ReLU(inplace=True)
  )
)
2025-01-15 14:05:57,159 [INFO] core.trainer: Trainable params in the model: 11723712
2025-01-15 14:05:57,219 [INFO] core.trainer: load 38400 train image with 64 label.
2025-01-15 14:06:40,135 [INFO] core.trainer: load 9600 val image with 16 label.
2025-01-15 14:07:22,963 [INFO] core.trainer: load 12000 test image with 20 label.
…
